Namespace(batchSize=64, beta1=0.5, cuda=True, dataroot='.', dataset='folder', imageSize=64, lr=0.0002, manualSeed=None, ndf=64, netD='', netG='', ngf=64, ngpu=1, niter=600, nz=100, outf='.', workers=2)
Random Seed:  9394
loaded dataset
Generator(
  (projection): Sequential(
    (0): Linear(in_features=1024, out_features=128, bias=True)
    (1): LeakyReLU(negative_slope=0.2, inplace)
  )
  (main): Sequential(
    (0): ConvTranspose2d(228, 512, kernel_size=(4, 4), stride=(1, 1), bias=False)
    (1): BatchNorm2d(512, eps=1e-05, momentum=0.1, affine=True, track_running_stats=True)
    (2): ReLU(inplace)
    (3): ConvTranspose2d(512, 256, kernel_size=(4, 4), stride=(2, 2), padding=(1, 1), bias=False)
    (4): BatchNorm2d(256, eps=1e-05, momentum=0.1, affine=True, track_running_stats=True)
    (5): ReLU(inplace)
    (6): ConvTranspose2d(256, 128, kernel_size=(4, 4), stride=(2, 2), padding=(1, 1), bias=False)
    (7): BatchNorm2d(128, eps=1e-05, momentum=0.1, affine=True, track_running_stats=True)
    (8): ReLU(inplace)
    (9): ConvTranspose2d(128, 64, kernel_size=(4, 4), stride=(2, 2), padding=(1, 1), bias=False)
    (10): BatchNorm2d(64, eps=1e-05, momentum=0.1, affine=True, track_running_stats=True)
    (11): ReLU(inplace)
    (12): ConvTranspose2d(64, 3, kernel_size=(4, 4), stride=(2, 2), padding=(1, 1), bias=False)
    (13): Tanh()
  )
)
Discriminator(
  (D1): Sequential(
    (0): Conv2d(3, 64, kernel_size=(4, 4), stride=(2, 2), padding=(1, 1), bias=False)
    (1): LeakyReLU(negative_slope=0.2, inplace)
    (2): Conv2d(64, 128, kernel_size=(4, 4), stride=(2, 2), padding=(1, 1), bias=False)
    (3): BatchNorm2d(128, eps=1e-05, momentum=0.1, affine=True, track_running_stats=True)
    (4): LeakyReLU(negative_slope=0.2, inplace)
    (5): Conv2d(128, 256, kernel_size=(4, 4), stride=(2, 2), padding=(1, 1), bias=False)
    (6): BatchNorm2d(256, eps=1e-05, momentum=0.1, affine=True, track_running_stats=True)
    (7): LeakyReLU(negative_slope=0.2, inplace)
    (8): Conv2d(256, 512, kernel_size=(4, 4), stride=(2, 2), padding=(1, 1), bias=False)
    (9): BatchNorm2d(512, eps=1e-05, momentum=0.1, affine=True, track_running_stats=True)
    (10): LeakyReLU(negative_slope=0.2, inplace)
  )
  (projector): Concat(
    (projection): Sequential(
      (0): Linear(in_features=1024, out_features=128, bias=True)
      (1): LeakyReLU(negative_slope=0.2, inplace)
    )
  )
  (D2): Sequential(
    (0): Conv2d(640, 1, kernel_size=(4, 4), stride=(1, 1), bias=False)
    (1): Sigmoid()
  )
)
starting epochs
[0/600][0/93] Loss_D: 3.0229 Loss_G: 7.0078 D(x): 0.6308 D(G(z)): 0.6450 / 0.0016
[0/600][1/93] Loss_D: 4.4774 Loss_G: 4.2254 D(x): 0.0763 D(G(z)): 0.1608 / 0.0222
[0/600][2/93] Loss_D: 2.6947 Loss_G: 3.9481 D(x): 0.3147 D(G(z)): 0.4558 / 0.0263
[0/600][3/93] Loss_D: 3.3594 Loss_G: 5.9763 D(x): 0.8009 D(G(z)): 0.5669 / 0.0043
…
