Namespace(batchSize=128, beta1=0.3, cls=False, cuda=True, dataroot='.', dataset='folder', desc_per_img=5, imageSize=64, incl_stopwords=False, lr=0.0004, manualSeed=None, ndf=64, netD='', netG='', ngf=64, ngpu=1, niter=100, nz=100, outf='naive_5desc/', workers=2)
Random Seed:  1062
loaded dataset
Generator(
  (projection): Sequential(
    (0): Linear(in_features=1024, out_features=128, bias=True)
    (1): LeakyReLU(negative_slope=0.2, inplace)
  )
  (main): Sequential(
    (0): ConvTranspose2d(228, 512, kernel_size=(4, 4), stride=(1, 1), bias=False)
    (1): BatchNorm2d(512, eps=1e-05, momentum=0.1, affine=True, track_running_stats=True)
    (2): ReLU(inplace)
    (3): ConvTranspose2d(512, 256, kernel_size=(4, 4), stride=(2, 2), padding=(1, 1), bias=False)
    (4): BatchNorm2d(256, eps=1e-05, momentum=0.1, affine=True, track_running_stats=True)
    (5): ReLU(inplace)
    (6): ConvTranspose2d(256, 128, kernel_size=(4, 4), stride=(2, 2), padding=(1, 1), bias=False)
    (7): BatchNorm2d(128, eps=1e-05, momentum=0.1, affine=True, track_running_stats=True)
    (8): ReLU(inplace)
    (9): ConvTranspose2d(128, 64, kernel_size=(4, 4), stride=(2, 2), padding=(1, 1), bias=False)
    (10): BatchNorm2d(64, eps=1e-05, momentum=0.1, affine=True, track_running_stats=True)
    (11): ReLU(inplace)
    (12): ConvTranspose2d(64, 3, kernel_size=(4, 4), stride=(2, 2), padding=(1, 1), bias=False)
    (13): Tanh()
  )
)
Discriminator(
  (D1): Sequential(
    (0): Conv2d(3, 64, kernel_size=(4, 4), stride=(2, 2), padding=(1, 1), bias=False)
    (1): LeakyReLU(negative_slope=0.2, inplace)
    (2): Conv2d(64, 128, kernel_size=(4, 4), stride=(2, 2), padding=(1, 1), bias=False)
    (3): BatchNorm2d(128, eps=1e-05, momentum=0.1, affine=True, track_running_stats=True)
    (4): LeakyReLU(negative_slope=0.2, inplace)
    (5): Conv2d(128, 256, kernel_size=(4, 4), stride=(2, 2), padding=(1, 1), bias=False)
    (6): BatchNorm2d(256, eps=1e-05, momentum=0.1, affine=True, track_running_stats=True)
    (7): LeakyReLU(negative_slope=0.2, inplace)
    (8): Conv2d(256, 512, kernel_size=(4, 4), stride=(2, 2), padding=(1, 1), bias=False)
    (9): BatchNorm2d(512, eps=1e-05, momentum=0.1, affine=True, track_running_stats=True)
    (10): LeakyReLU(negative_slope=0.2, inplace)
  )
  (projector): Concat(
    (projection): Sequential(
      (0): Linear(in_features=1024, out_features=128, bias=True)
      (1): BatchNorm1d(128, eps=1e-05, momentum=0.1, affine=True, track_running_stats=True)
      (2): LeakyReLU(negative_slope=0.2, inplace)
    )
  )
  (D2): Sequential(
    (0): Conv2d(640, 1, kernel_size=(4, 4), stride=(1, 1), bias=False)
    (1): Sigmoid()
  )
)
starting epochs
[0/100][0/231] Loss_D: 1.8677 | Loss_G: 11.9596 | D(x) 0.5755 | D(G(z)): 0.6103 / 0.0000
[0/100][1/231] Loss_D: 1.3502 | Loss_G: 13.5942 | D(x) 0.8873 | D(G(z)): 0.5920 / 0.0000
[0/100][2/231] Loss_D: 0.7462 | Loss_G: 4.5475 | D(x) 0.6703 | D(G(z)): 0.0647 / 0.0224
[0/100][3/231] Loss_D: 6.7526 | Loss_G: 16.4312 | D(x) 0.9934 | D(G(z)): 0.9977 / 0.0000
…
